models/하의_반바지_스타일.tflite (tflite, 680592 bytes, 107 tensors)

arith.constant f4 [16]
0	0x4044ce49	3.0750906
1	0xc0681184	-3.626069
2	0x4029b5b3	2.651715
3	0xc0075c0b	-2.1149929
4	0x40454d60	3.0828476
5	0xbfc40cf0	-1.5316448
6	0x40166e53	2.3504837
7	0x3e1ddfaf	0.1541736
8	0x40402f64	3.0028925
9	0x40ec1b44	7.3783283
10	0x4036b6e9	2.854914
11	0xbfcacffb	-1.5844721
12	0x3fff8882	1.9963534
13	0xbeb830bc	-0.3597468
14	0x403e624b	2.9747493
15	0xc09a8891	-4.8291707

arith.constant2 f4 [100]
0	0x3af63b1c	0.0018785927
1	0xbbb8cad9	-0.0056394157
2	0x3a441336	0.00074796693
3	0x3b7b4ea5	0.0038346436
4	0x3bf5a40c	0.0074963626
5	0xbbbacb5d	-0.0057005123
6	0xbb89bb69	-0.0042032492
7	0xbbfa4936	-0.007638122
8	0x3c1f7706	0.009732967
9	0x3c13de88	0.009025224
10	0x3c313c80	0.010817647
11	0xb9c1b37e	-0.0003694556
12	0xbbdb16cf	-0.0066860686
13	0x3c61bf1c	0.013778474
14	0x3bb1b514	0.0054231975
15	0x00000000	0.0
16	0x3c655960	0.013998359
17	0x3b00aae1	0.0019633102
18	0x3b89508e	0.004190511
19	0x3c1937dc	0.009351697
20	0x3c246f05	0.010036235
21	0xbbf4c31e	-0.007469549
22	0x3af79d0a	0.0018891406
23	0xba8f13b7	-0.001091591
24	0x3c47a16c	0.012184482
25	0x3aaec922	0.0013335089
26	0x3bc4fcbd	0.006011574
27	0x3a58dd56	0.0008272728
28	0xbbede91c	-0.007260455
29	0x3b8ddb5f	0.0043291296
30	0x3bb22119	0.0054360745
31	0x3c4c41c1	0.012466849
32	0xbc0e9986	-0.008703595
33	0xbb8d6c89	-0.004315917
34	0xbc065073	-0.0081978915
35	0xba407f84	-0.000734322
36	0x3b814a59	0.0039456305
37	0x3b34cd3e	0.0027588154
38	0x3c085970	0.008322105
39	0xbbb52c17	-0.0055289376
40	0x3b42b4ec	0.0029709889
41	0x39fb6ade	0.00047954073
42	0x3bdb0954	0.0066844616
43	0xbbbbe6c3	-0.005734296
44	0x3acb2f15	0.0015501702
45	0xbb89b6d2	-0.004202702
46	0xbb1c80fd	-0.0023880594
47	0xb903250b	-0.00012506933
48	0xbbf7a1b6	-0.0075571192
49	0x3a922c74	0.0011152164
50	0x3bc94ee9	0.00614344
51	0x3b833f79	0.0040053693
52	0x3c03c5cf	0.008042767
53	0x3b823464	0.0039735306
54	0x3c25df3a	0.010124022
55	0xbbc12643	-0.0058944537
56	0x3c15cbe7	0.009142852
57	0x3c078eb6	0.008273771
58	0xb7d55f82	-2.5436053e-05
59	0xb8c5a394	-9.424161e-05
60	0x3b0e9997	0.0021759027
61	0xbc13a264	-0.009010885
62	0xbbbf8758	-0.0058449917
63	0x3bef539f	0.0073036696
64	0x3b22c388	0.0024835784
65	0x38d6a599	0.0001023516
66	0x00000000	0.0
67	0xbbc1e864	-0.0059175957
68	0x3c443016	0.011974355
69	0xbba13b2f	-0.0049203853
70	0x00000000	0.0
71	0x3bcc3ffe	0.0062332144
72	0x3c21ab99	0.009867572
73	0xbade2199	-0.0016947269
74	0x3b3b16a0	0.002854742
75	0x3bbd6e37	0.005780961
76	0x3bc5f8fa	0.006041643
77	0xbc1ba1c0	-0.009499013
78	0xbbac56ec	-0.0052593853
79	0x3b744c94	0.003727709
80	0x3bfecce9	0.007775892
81	0xbc14e9fb	-0.009088988
82	0x3a8c92a4	0.0010724855
83	0x3c0e10ed	0.008671028
84	0xbb78c73a	-0.0037960545
85	0x3c16ba44	0.009199683
86	0x00000000	0.0
87	0xba38f14c	-0.0007054999
88	0x3c174b7e	0.009234307
89	0xbbd52ce2	-0.0065055946
90	0x3a8fc986	0.0010970093
91	0x3b818c83	0.003953518
92	0xbbbe8924	-0.0058146883
93	0x3bfce579	0.007717785
94	0x00000000	0.0
95	0x3c769c7b	0.015051956
96	0x3c53b443	0.012921396
97	0xbbdb0e7f	-0.0066850777
98	0xbb402d27	-0.0029323788
99	0x3bed82e8	0.0072482713

arith.constant3 f4 [4, 100]
0	0x3e570df7	0.21001421
1	0xbd9bc7f5	-0.07606498
2	0x3cef2d34	0.02919636
3	0xbd756299	-0.059908483
4	0x3d5e3927	0.054253723
5	0x3d535b9d	0.05160104
6	0xbbbaeef1	-0.0057047536
7	0xbd0bcb2c	-0.034129307
8	0xbe9d4c1d	-0.30722132
9	0xbe3208e1	-0.173862
10	0xbe1028d2	-0.14078072
11	0xbcb304b5	-0.02185283
12	0xbcee3a86	-0.02908064
13	0xbe4034ac	-0.18770093
14	0xbe532a63	-0.20621638
15	0x3c6ee729	0.01458148
16	0x3c71025f	0.014710038
17	0x3c6cdf38	0.014457516
18	0xbd803b06	-0.06261258
19	0xbc1043ed	-0.008805257
20	0xbdd32e61	-0.103115804
21	0x3e3b3b49	0.18284334
22	0x3def48e4	0.11683825
23	0x3d899062	0.06716992
24	0xbe82722b	-0.25477728
25	0x3cd50b37	0.026006324
26	0xbc06b0ad	-0.008220834
27	0x3e609fba	0.21935931
28	0x3db6d04d	0.08926449
29	0xbe3bfb10	-0.18357491
30	0x3c13a5d1	0.009011702
31	0x3d128e11	0.035780016
32	0x3d8d841a	0.06909962
33	0x3e0d170e	0.13778326
34	0x3c27c2ed	0.010239345
35	0x3d9a6e0b	0.0754052
36	0xbd282101	-0.0410471
37	0x3d5f36bb	0.054495554
38	0x3cf20429	0.029543
39	0x3da75060	0.08169627
40	0x3c4807b7	0.012208871
41	0xbd8469c4	-0.06465486
42	0x3d236822	0.03989423
43	0xbc2ddbd5	-0.010611494
44	0x3e1dca4f	0.15409206
45	0x3c1332f1	0.008984313
46	0x3e7b8022	0.24560598
47	0x3d914c7b	0.070946656
48	0x3e248bb4	0.16068918
49	0xbaa3f372	-0.0012508465
50	0xbe46f588	-0.194296
51	0x3df9dd21	0.1220038
52	0x3cf205e6	0.029543828
53	0x3db19138	0.086702764
54	0xbe998d87	-0.2999079
55	0x3dda4661	0.10657955
56	0xbdda62e2	-0.10663392
57	0x3de17f71	0.11010636
58	0x3d66212c	0.05618398
59	0x3e656254	0.2240079
60	0xbd9fb196	-0.07797544
61	0xbc6399c4	-0.013891641
62	0x3de38577	0.11109441
63	0xbdf32ac3	-0.118733905
64	0xbca2c003	-0.019866949
65	0x3c73849a	0.014863158
66	0xbd3a363d	-0.045461882
67	0x3a4b7fbd	0.000776287
68	0xbcd77787	-0.026302112
69	0x3e3179f1	0.17331673
70	0x3d5f7bfd	0.054561604
71	0xbd16f833	-0.036857795
72	0xbe70d9e0	-0.23520613
73	0xbde4a0f1	-0.1116351
74	0xbdf46998	-0.11934203
75	0xbd755146	-0.05989196
76	0x3cf98f43	0.03046382
77	0x3bebfd20	0.0072018057
78	0xbe109a67	-0.141214
79	0xbd810c6b	-0.06301197
80	0x3d74217f	0.059602257
81	0x3e063df8	0.13109577
82	0x3dc6eff0	0.09713733
83	0xbcba1b77	-0.022718174
84	0xbd3f8cf3	-0.04676528
85	0xbc868c0c	-0.016424201
86	0xbdb3c6c1	-0.08778144
87	0x3e76eb43	0.24113183
88	0x3c997219	0.018731164
89	0xbe333492	-0.17500523
90	0x3be1069f	0.0068672444
91	0x3d6f7f7e	0.058471195
92	0xbd398693	-0.045294356
93	0xbcceed21	-0.025259556
94	0x3cb2a8a5	0.021808932
95	0xbc70811c	-0.01467922
96	0xbe495006	-0.19659433
97	0x3a24faae	0.00062934577
98	0x3e173f63	0.14770274
99	0x3d42f1ef	0.047594007
100	0xbe3a0a31	-0.1816795
101	0xbda9f072	-0.082978144
102	0xbe63aa63	-0.22232966
103	0x3d00f144	0.03148009
104	0x3d90d129	0.07071144
105	0xbdedd360	-0.11612582
106	0x3c41993b	0.011816318
107	0xbd966d15	-0.073450245
108	0x3e4d02bd	0.20020576
109	0x3d5fb0b0	0.05461186
110	0x3e0d299c	0.13785404
111	0xbe95db23	-0.2926875
112	0xbe0b80bc	-0.13623327
113	0x3ccc1713	0.024913346
114	0xbda68ca1	-0.081322916
115	0xbc881763	-0.016612714
116	0x3e094638	0.13405693
117	0xbdbd8e38	-0.09255642
118	0xbe5b72e3	-0.21430545
119	0x3e09f478	0.13472164
120	0xbe1734b8	-0.14766204
121	0x3aad8270	0.0013237726
122	0xbe9a47c9	-0.30132893
123	0x3ba8a173	0.0051461994
124	0x3c897d9e	0.016783532
125	0xbea7cc75	-0.32773176
126	0x3da6556e	0.08121763
127	0xbddb6516	-0.1071264
128	0xbce92d07	-0.028463854
129	0xbd6d2759	-0.057898853
130	0x3db5d979	0.0887937
131	0xbd784ff9	-0.060623143
132	0xbdf46242	-0.11932804
133	0x3d744958	0.05964026
134	0x3da9eb61	0.08296848
135	0xbe0243f8	-0.1272124
136	0xbe62e7bb	-0.2215871
137	0xbcebc21a	-0.028779078
138	0xbdc864e3	-0.097848676
139	0xbd76c631	-0.060247604
140	0xbdfb2831	-0.12263525
141	0x3e1a26a0	0.15053797
142	0x3e5b6edc	0.21429008
143	0xbdf82cbd	-0.12117908
144	0xbd89088f	-0.066910855
145	0xbc93235d	-0.017961198
146	0xbd20fc89	-0.039303336
147	0xbe215010	-0.15753198
148	0x3d872bca	0.06600149
149	0x3b951493	0.004549572
150	0x3e6a56b5	0.22884639
151	0x3c1c4b34	0.009539414
152	0x3e6a50ed	0.22882433
153	0x3d4636c9	0.04839209
154	0xbde7a59a	-0.11310883
155	0xbe24d739	-0.16097726
156	0xbe2f8ce4	-0.1714359
157	0x3e0522e3	0.1300159
158	0xbe83d58f	-0.2574887
159	0x3d1a360d	0.037649203
160	0xbd849c8a	-0.0647517
161	0xbd979276	-0.07400982
162	0xbaf1fa7a	-0.0018461489
163	0xbe120392	-0.14259174
164	0xbe6cf146	-0.23138914
165	0xbdc14aad	-0.094380714
166	0x3c9baeb9	0.019004213
167	0x3cfb2287	0.030656112
168	0xbd2c39ce	-0.042047314
169	0xbbd2b865	-0.006430673
170	0xbc17ad7c	-0.0092576705
171	0x3d94baf5	0.07262222
172	0x3c02d9bf	0.007986485
173	0xbdac4584	-0.084116966
174	0xbac87d0a	-0.0015296054
175	0xbe892592	-0.26786476
176	0x3e60c214	0.21949035
177	0xbd5a50be	-0.053299658
178	0x3d921728	0.07133323
179	0xbe1cc8b0	-0.15310931
180	0x3c5dedf5	0.013545503
181	0xbdebf0b9	-0.115205236
182	0x3d16d8db	0.036827903
183	0xbde4af84	-0.111662894
184	0xbd372e13	-0.044721674
185	0x3e1b9cbc	0.15196508
186	0x3aaa6968	0.0013001384
187	0xbe053d17	-0.13011585
188	0x3dfe44e1	0.12415481
189	0xbdbf81ac	-0.09350905
190	0xbe05bb29	-0.13059677
191	0x3d6a0906	0.05713751
192	0xbce64779	-0.028110253
193	0x3da5ee69	0.08102114
194	0x3dfb3be0	0.122672796
195	0x3e4d2c0a	0.20036331
196	0xbe60582f	-0.2190864
197	0xbd174af4	-0.036936715
198	0xbdeca42b	-0.1155475
199	0x3d9f9352	0.07791771
200	0xbe5ad8ed	-0.21371813
201	0xbe336a94	-0.17521125
202	0xbdb94745	-0.09046797
203	0xbe4b6eb5	-0.1986645
204	0xbd8e9ced	-0.06963525
205	0xbe3466b5	-0.17617305
206	0xbd062f8d	-0.03276019
207	0x3d339b27	0.043849137
208	0xbaa06882	-0.0012238177
209	0x3e4667c3	0.1937552
210	0xbd7da701	-0.061926845
211	0x3be03128	0.0068417974
212	0xbde43163	-0.11142232
213	0x3d15b24e	0.036546998
214	0xbe25d640	-0.16195011
215	0xbe1b5940	-0.15170765
216	0xbe0db0d4	-0.13836986
217	0x3d88f556	0.06687419
218	0xbc77bbef	-0.01512049
219	0x3e011708	0.12606442
220	0x3d2e981f	0.042625543
221	0x3d1b1da5	0.037870068
222	0x3e1e7353	0.1547368
223	0xbdfa258b	-0.12214192
224	0x3e4ed5a3	0.20198683
225	0x3d179ad1	0.03701288
226	0x3d7306ed	0.059332777
227	0x3e0d24c5	0.13783558
228	0x3d084852	0.033272095
229	0xbe4db098	-0.20086896
230	0xbdde16c2	-0.108441845
231	0x3e4a5a1a	0.19760934
232	0x3d1e38f3	0.03862853
233	0xbd71ee45	-0.059065122
234	0xbdf42f2e	-0.11923061
235	0xba91692b	-0.0011093965
236	0x3e104b7b	0.14091294
237	0xbe42460e	-0.18972036
238	0x3e050b48	0.12992585
239	0xbd03e18a	-0.032197513
240	0x3d70a363	0.058749568
241	0xbd667c92	-0.056271143
242	0xbe15b3d8	-0.14619386
243	0x3d0db3cb	0.034595292
244	0x3de1e5c8	0.110301554
245	0xbcbdc882	-0.023166899
246	0xbdafae3d	-0.08578155
247	0x3e6246f5	0.2209738
248	0x3d026f24	0.031844273
249	0x3d87be81	0.066281326
250	0xbdd369d7	-0.10322922
251	0xbe3b0100	-0.182621
252	0xbd526cda	-0.05137334
253	0x3dc1d95a	0.09465285
254	0x3de0d9d3	0.10979047
255	0xbc824fc9	-0.015907185

arith.constant4 f4 [16, 3, 3, 3]
0	0x3dbcdbef	0.092216365
1	0x3e41762d	0.18892737
2	0x3d698a34	0.057016566
3	0xbed4510b	-0.4146808
4	0xbf4eae22	-0.80734456
5	0xbe746fd8	-0.2387079
6	0x3eab8e29	0.33506897
7	0x3f2a3d9d	0.66500264
8	0x3e144d73	0.1448267
9	0x3dbff924	0.09373692
10	0x3e5d0d46	0.21587095
11	0x3d79bbfb	0.060970288
12	0xbed7ad5e	-0.42124456
13	0xbf43eac5	-0.76530105
14	0xbe5e325c	-0.21698898
15	0x3ec31b30	0.3810668
16	0x3f2aa6eb	0.66660947
17	0x3e17aa6c	0.14811105
18	0xbbadcb88	-0.005303804
19	0x3c3452ec	0.011006098
20	0x3cbd66aa	0.023120243
21	0xbdfc6869	-0.12324602
22	0xbe115abb	-0.14194767
23	0xbd80e68d	-0.06293974
24	0x3de7f992	0.11326899
25	0x3d7ab8a8	0.06121126
26	0x3d27a797	0.04093131
27	0xbe75c6c5	-0.24001606
28	0x3d47f34b	0.048816007
29	0xbf2516c3	-0.64487857
30	0x3eef80a4	0.46777833
31	0x3f8dd37a	1.1080163
32	0x3f2ef135	0.683368
33	0x3fd13034	1.6342835
34	0x3ff9116a	1.9458439
35	0x3fa88ca6	1.3167922
36	0xbdb41683	-0.08793356
37	0x3e175a6f	0.14780591
38	0xbe115797	-0.14193569
39	0xbde8b337	-0.113623075
40	0xbec951a8	-0.3932011
41	0x3e642bcc	0.22282332
42	0x3f0e90d1	0.5568972
43	0x3d55222a	0.052034535
44	0x3e183601	0.14864351
45	0x3d0e2a20	0.034708142
46	0x3e97acf6	0.29624146
47	0xbe9def25	-0.30846515
48	0x3d5c122e	0.053728275
49	0x3e87a05a	0.26489526
50	0x3d60ec14	0.05491264
51	0x3e469d49	0.19395937
52	0x3e79844e	0.24366876
53	0x3e4b119b	0.19830935
54	0xbea7f216	-0.32801884
55	0xbf116a58	-0.5680289
56	0xbe13ad8d	-0.14421673
57	0xbeec067e	-0.46098703
58	0xbf58e3ce	-0.847226
59	0xbe5e73f4	-0.2172392
60	0xbe2b370e	-0.1672022
61	0xbeb598ff	-0.3546829
62	0xbdbc1ff9	-0.09185786
63	0x3de8a9af	0.113604896
64	0x3eb5b495	0.35489336
65	0x3db8a324	0.090154916
66	0x3de85a93	0.11345401
67	0x3ecf244f	0.4045739
68	0x3dbb9df0	0.091609836
69	0x3dc0f19e	0.09421085
70	0x3e4c63de	0.19959971
71	0x3d627bb1	0.055293743
72	0x3e67ca15	0.22635682
73	0x3ebe169a	0.3712662
74	0x3dda337d	0.10654352
75	0x3eab1ba4	0.33419526
76	0x3f0eaf93	0.55736655
77	0x3e21b4ac	0.15791577
78	0x3e3cc72e	0.18435356
79	0x3e16043e	0.14650056
80	0x3d846b5e	0.06465791
81	0xa04930ef	-1.7041553e-19
82	0xa296b5ec	-4.08502e-18
83	0xa2180795	-2.0603855e-18
84	0xa1fa4ecd	-1.6961517e-18
85	0xa2981bc9	-4.12291e-18
86	0xa2453fbb	-2.6732217e-18
87	0xa1bd21b0	-1.2816055e-18
88	0xa286792f	-3.644908e-18
89	0xa2228e9b	-2.2030589e-18
90	0xa1bc0bef	-1.2742534e-18
91	0xa28eff8d	-3.875975e-18
92	0xa24aa08c	-2.7461098e-18
93	0xa2900065	-3.9031696e-18
94	0xa2ba27ac	-5.0457405e-18
95	0xa297a6b2	-4.1105128e-18
96	0xa2399f2a	-2.5156436e-18
97	0xa28b1ea0	-3.770845e-18
98	0xa2704394	-3.256184e-18
99	0xa2142368	-2.0076484e-18
100	0xa2acff46	-4.6890975e-18
101	0xa274e845	-3.3191129e-18
102	0xa28778c3	-3.6719685e-18
103	0xa2b0eda7	-4.795652e-18
104	0xa28fbf3b	-3.89627e-18
105	0xa2246d45	-2.2283991e-18
106	0xa28706d9	-3.6599074e-18
107	0xa25efe13	-3.0221116e-18
108	0x3ead399e	0.3383302
109	0x3f408730	0.7520628
110	0x3e443939	0.19162454
111	0xbea4232a	-0.32058078
112	0xbf1f2fa1	-0.6218205
113	0xbe1e2765	-0.15444715
114	0x3cc927b3	0.024555063
115	0x3d693cce	0.056942753
116	0xbc618f36	-0.013767054
117	0x3eecf164	0.46277916
118	0x3f5d1944	0.8636668
119	0x3e565f6f	0.20934843
120	0xbebae525	-0.36502948
121	0xbf278eb4	-0.6545212
122	0xbe250d29	-0.16118301
123	0x3d06def2	0.03292746
124	0x3dbb7cf2	0.09154691
125	0xbaf487fd	-0.001865625
126	0x3e3f2bdd	0.18669076
127	0x3e1eaf1b	0.15496485
128	0x3da192af	0.07889306
129	0xbdeb59df	-0.11491751
130	0xbdf63b4b	-0.12023028
131	0xbd14ec67	-0.036358263
132	0xbcb33307	-0.021874918
133	0xbca82098	-0.020523354
134	0xbb91faab	-0.004454931
135	0x1c23f28c	5.424566e-22
136	0x9d2f6163	-2.3211405e-21
137	0x9d4b591e	-2.6912899e-21
138	0x1d34d930	2.3935085e-21
139	0x1c1d28c6	5.199964e-22
140	0x9c3f74c2	-6.3347505e-22
141	0x1cd010f8	1.3768672e-21
142	0x9b5ebe97	-1.8424992e-22
143	0x9cd32ffb	-1.3975211e-21
144	0x1b8d23ad	2.3349548e-22
145	0x9d192ac7	-2.0271497e-21
146	0x9d414a7f	-2.558185e-21
147	0x1d8c0f98	3.7073815e-21
148	0x1d4e731f	2.732339e-21
149	0x1c6607a0	7.611047e-22
150	0x1cdb1bca	1.4499388e-21
151	0x1d02a93d	1.729285e-21
152	0x9c18b532	-5.052677e-22
153	0x1cea1f1c	1.5492863e-21
154	0x1baaac40	2.8235455e-22
155	0x9cdb1a5c	-1.4499018e-21
156	0x1d704180	3.1797598e-21
157	0x1d3acc4e	2.4722518e-21
158	0x1b48fd1f	1.66254e-22
159	0x1d183968	2.014671e-21
160	0x1d2e807c	2.3095133e-21
161	0x9b992629	-2.5336387e-22
162	0x3d95c931	0.07313765
163	0xbcb9b1ce	-0.022667792
164	0xbd7d48de	-0.06183707
165	0x3e8e3580	0.27775192
166	0xbde0f1b7	-0.109836034
167	0xbe38dc93	-0.18052892
168	0x3e7d822b	0.24756686
169	0xbd85d065	-0.06533889
170	0xbe443176	-0.19159493
171	0x3e62a588	0.22133458
172	0xbd28c4fc	-0.041203484
173	0xbe42bfa6	-0.1901842
174	0x3edfe954	0.43732703
175	0xbe1a2890	-0.15054536
176	0xbe988e26	-0.2979595
177	0x3e59967c	0.21248811
178	0xbd54b7cb	-0.05193309
179	0xbe1f3f4c	-0.1555149
180	0x3e566a16	0.20938906
181	0xbcde9aab	-0.02717336
182	0xbe4708ea	-0.19436994
183	0x3e61f750	0.22066998
184	0xbd3a1c1c	-0.045436963
185	0xbe31886d	-0.17337199
186	0xbd79d86a	-0.060997404
187	0x3d34ed57	0.044171657
188	0x3ccb6e33	0.02483282
189	0x1e5cd65b	1.1691031e-20
190	0x9e54f9c1	-1.12748344e-20
191	0x9d5e815b	-2.944833e-21
192	0x1e4d5cc9	1.0871797e-20
193	0x9e6aece6	-1.2436846e-20
194	0x9dddc5b9	-5.8702653e-21
195	0x1e117809	7.701059e-21
196	0x9e75f21b	-1.3020258e-20
197	0x9d42b02e	-2.5766769e-21
198	0x1e4bd8bd	1.0791551e-20
199	0x9e888def	-1.4458262e-20
200	0x9db83010	-4.875409e-21
201	0x1e843654	1.3998513e-20
202	0x9e7f0cf7	-1.3502269e-20
203	0x9bcf6082	-3.4307644e-22
204	0x1e0a663d	7.3268016e-21
205	0x9e8e9b5c	-1.509909e-20
206	0x9ddfc429	-5.9230433e-21
207	0x1e4db4b3	1.0889977e-20
208	0x9e7a1e2d	-1.324113e-20
209	0x9d868676	-3.5608534e-21
210	0x1e55abb4	1.13116335e-20
211	0x9e669059	-1.2205949e-20
212	0x9d403964	-2.5440659e-21
213	0x1e57c97e	1.1423673e-20
214	0x9e16e0de	-7.987435e-21
215	0x9bd86f8b	-3.5806285e-22
216	0xbd77cbef	-0.06049722
217	0xbd9ef83a	-0.07762189
218	0xbc4d9968	-0.012548782
219	0xbc967f2e	-0.01837119
220	0xbd4ce5d2	-0.05002386
221	0xbd49ef14	-0.04930027
222	0x3d18e3ad	0.037326504
223	0xbda164ed	-0.07880578
224	0x3cb02866	0.021503638
225	0xbe830579	-0.25590113
226	0xbed14094	-0.40869582
227	0xbe335aff	-0.17515181
228	0xbe85945a	-0.26089746
229	0xbf01570f	-0.50523466
230	0xbe29587c	-0.1653766
231	0xbcb43cb5	-0.022001604
232	0xbdd7e395	-0.10541455
233	0xbd2c161d	-0.042013276
234	0xbe2b93f2	-0.16755655
235	0xbe3b0dbb	-0.18266957
236	0xbd0a057e	-0.033696644
237	0xbe0036a8	-0.1252085
238	0xbdc70a62	-0.09718777
239	0xbca60cb2	-0.020269725
240	0x3d239cd5	0.03994449
241	0x3cd958f8	0.026531681
242	0x3c7d57a5	0.015462791
243	0xbf773281	-0.9656144
244	0x3fd66eb8	1.6752539
245	0x3e8d078e	0.27544826
246	0xbedb899b	-0.42878422
247	0x3fc7d46b	1.56117
248	0xbf52f9f1	-0.8241263
249	0x3f90661f	1.1281165
250	0xbf1d88c4	-0.6153681
251	0xbee251cb	-0.44203028
252	0xbeb0682b	-0.34454474
253	0x3ed85307	0.42250845
254	0x3e01c1ca	0.12671581
255	0x3d5fca53	0.05463631

arith.constant5 f4 [8, 1, 1, 16]
0	0xbf2b275f	-0.6685695
1	0xbe64b864	-0.22335964
2	0xbf860d38	-1.0472784
3	0x21909f2f	9.799955e-19
4	0xbf12b2c8	-0.5730405
5	0x3aa1e2e9	0.001235095
6	0xc0e7bc94	-7.24177
7	0x1d040c12	1.7476295e-21
8	0x3f811512	1.0084555
9	0x3ff73dde	1.9315755
10	0x3fa313c6	1.2740409
11	0x3a7c0b9c	0.0009614767
12	0x3d9a8e06	0.0754662
13	0x9bfad403	-4.149604e-22
14	0xbfb59068	-1.4184694
15	0x3f101a11	0.56289774
16	0xc00c8af1	-2.1959803
17	0xbf54fd67	-0.8319916
18	0xc0d96406	-6.79346
19	0x2184d8bb	9.002036e-19
20	0x3efc9997	0.4933593
21	0xbc4a67a2	-0.01235381
22	0x3f7dc0f9	0.9912258
23	0x1b05db23	1.1072309e-22
24	0xbe7c70e0	-0.24652433
25	0xbf077069	-0.529059
26	0xbd768c7b	-0.060192566
27	0xbc215e12	-0.009849088
28	0xbfaf22f8	-1.3682547
29	0x1cd8cb89	1.4346294e-21
30	0x3eb0cb47	0.34530088
31	0x3cfe7aaf	0.03106436
32	0x3e78bdd1	0.24291159
33	0x3e87990a	0.26483947
34	0x3ebb4ca8	0.36581922
35	0x21a628e0	1.1259417e-18
36	0x401b373e	2.4252467
37	0xbc3914fa	-0.011296505
38	0x3f75be23	0.9599325
39	0x9d8349b2	-3.475161e-21
40	0xbe883108	-0.26599908
41	0xbf50dacd	-0.81583863
42	0x40b37f12	5.6092615
43	0xbc146caf	-0.009059115
44	0x3e3af70e	0.18258306
45	0x9d2a2f82	-2.2523874e-21
46	0x40a46b98	5.138134
47	0xbdc1533b	-0.09439703
48	0xbf8b4879	-1.0881492
49	0x3ec2e0ff	0.38062283
50	0x3eace718	0.3377006
51	0x2044571b	1.6630667e-19
52	0x4020dc95	2.5134633
53	0x3a8d095d	0.0010760237
54	0xc01968a3	-2.3970115
55	0x1d2d7c43	2.2960601e-21
56	0xbf5edbf2	-0.8705436
57	0x3fccf1d8	1.6011305
58	0xc08aafa5	-4.333941
59	0x3a632879	0.00086653937
60	0x3de21156	0.11038463
61	0x1e03c694	6.976147e-21
62	0x40b76fd1	5.7323995
63	0xbed4f023	-0.4158946
64	0x3f14664f	0.5796861
65	0xbd10db4a	-0.03536538
66	0xbf862508	-1.0480051
67	0xa1676908	-7.840485e-19
68	0xc11a0983	-9.627322
69	0x3cdfaf50	0.027305275
70	0x3d78cb94	0.060741022
71	0x1d01ae6a	1.7163178e-21
72	0x3e75c58f	0.24001144
73	0xbf9511cd	-1.1646057
74	0xbde09f1b	-0.10967847
75	0x3cb2cd0d	0.021826291
76	0x3eb53d54	0.35398352
77	0x1bf6f54a	4.08558e-22
78	0x4078a5e2	3.8851247
79	0x3ef91ef1	0.4865642
80	0x411b6bb0	9.713791
81	0x3d1b0f6b	0.0378565
82	0xc097a44c	-4.738806
83	0x9fa97d45	-7.1781525e-20
84	0x3f367eac	0.71287036
85	0x3bd75ac6	0.0065721003
86	0xbebc4655	-0.3677241
87	0x9e10c4d2	-7.663998e-21
88	0xc0261816	-2.59522
89	0x3f1de19d	0.61672384
90	0xbeb26eda	-0.34850198
91	0x3baae588	0.0052153505
92	0x4129207c	10.570431
93	0x9d6419b8	-3.0188845e-21
94	0x3dfdcc9b	0.12392541
95	0xbf151164	-0.5822966
96	0x41206200	10.023926
97	0xbf01d753	-0.50719184
98	0x3fb3b41f	1.4039344
99	0x216255c5	7.6685293e-19
100	0x3f9100a8	1.1328325
101	0x3c729e47	0.014808244
102	0xbee28802	-0.4424439
103	0x1bc435b2	3.246018e-22
104	0x4035f404	2.8430185
105	0x3fb35a3a	1.401191
106	0xbdba9cc2	-0.091119304
107	0x3c413f18	0.011794828
108	0xc1113368	-9.07505
109	0x1d53575d	2.7970783e-21
110	0x3eb49621	0.3527079
111	0x3f235a6e	0.6380986
112	0x3f0b5342	0.54423916
113	0x3feba1e7	1.8408784
114	0x3f829482	1.0201571
115	0xa206b395	-1.8255456e-18
116	0xbf17afdf	-0.59252733
117	0x3b331cf7	0.0027330497
118	0xbec4efc2	-0.3846417
119	0x1d8421bf	3.4975e-21
120	0xc0afac7b	-5.4898047
121	0x3e009e05	0.1256028
122	0x3e949bb2	0.29025036
123	0x3b104cac	0.0022018356
124	0xbf8a4ed8	-1.0805311
125	0x9d899877	-3.6421243e-21
126	0xbeb5b7a4	-0.3549167
127	0xc0341d05	-2.8142712

arith.constant6 f4 [48, 1, 1, 8]
0	0x3ec8a1a0	0.3918581
1	0xbdc32e9d	-0.09530375
2	0xbfb615eb	-1.4225439
3	0xbfcc9bdd	-1.5985066
4	0xbbaeade4	-0.005330788
5	0xbe4737f4	-0.19454938
6	0xbea06b8e	-0.31332058
7	0x3ea6cb7d	0.32577124
8	0xbca84110	-0.020538837
9	0xbd864f07	-0.06558042
10	0x3b5d261c	0.0033744639
11	0x3c3c2bf1	0.011485086
12	0xbd2167a9	-0.0394055
13	0xbe26b0e6	-0.16278419
14	0x3daab705	0.083356895
15	0x3c2d13fa	0.010563845
16	0xbe0bd361	-0.13654853
17	0x3cdc6676	0.026904326
18	0x3da5afc5	0.08090166
19	0xbdef0a9d	-0.11671946
20	0x3a06186d	0.0005115334
21	0xbbdccb74	-0.0067381207
22	0xbc34f963	-0.011045787
23	0xbc8f761e	-0.017512377
24	0x3ac61712	0.0015113077
25	0xbc827c30	-0.015928358
26	0xbcb23021	-0.021751465
27	0xbd031155	-0.03199895
28	0x3b2ea1f9	0.0026646836
29	0x3d6e0512	0.058110304
30	0x3d69fc93	0.05712564
31	0x3c66695a	0.014063204
32	0x3d186a7d	0.03721093
33	0x3b9b9f14	0.004749188
34	0x3dd06012	0.10174574
35	0xbdba98fa	-0.09111209
36	0x3aafd043	0.0013413507
37	0xbb2ba595	-0.0026191224
38	0xbb6db125	-0.0036268916
39	0x3c8d62c1	0.017259004
40	0x3e51d88c	0.20492762
41	0x3fc275d0	1.5192204
42	0xbd839b9b	-0.06426164
43	0xbd653a07	-0.055963542
44	0x3dc01856	0.09379642
45	0x3e86ce40	0.2632923
46	0x3e21b8c3	0.15793137
47	0xbe7453eb	-0.23860137
48	0x3c988e95	0.018622676
49	0xbca6b6be	-0.02035081
50	0xbc7351e4	-0.014851067
51	0xbd0d73f2	-0.034534402
52	0x3c9d8f03	0.019233232
53	0x3ab57b21	0.0013845899
54	0x3c4679ed	0.01211403
55	0xbe7ac111	-0.24487711
56	0xbda01e96	-0.07818334
57	0x3c16b149	0.0091975415
58	0xbb0338fc	-0.002002298
59	0xbc959aac	-0.01826223
60	0x3ac0c346	0.0014706634
61	0xb96e3b03	-0.00022719432
62	0xbae6cf35	-0.001760936
63	0xbc3e4d81	-0.011615158
64	0xbd12472b	-0.035712402
65	0xbe486bda	-0.19572392
66	0xbdb2e7b8	-0.08735603
67	0xbe10ced8	-0.14141405
68	0x3e42b803	0.19015507
69	0x3e9ab657	0.3021724
70	0x3ed5226d	0.41627827
71	0x3d306398	0.04306373
72	0xbca05c14	-0.019575156
73	0xbd9fccb8	-0.07802719
74	0xbbcb33ec	-0.006201258
75	0x3c2e66e8	0.010644652
76	0x3bb60e3d	0.0055558966
77	0xbdc5754f	-0.096415155
78	0x3da87d02	0.08226968
79	0x3c81119a	0.015755463
80	0x3beb258d	0.0071761073
81	0xbb79f405	-0.0038139832
82	0xbd294195	-0.04132231
83	0xbd94a0fc	-0.07257268
84	0x3b6b8f20	0.0035943463
85	0xbb52c2bb	-0.0032159525
86	0xb885ddd5	-6.383254e-05
87	0x3c64c093	0.013961929
88	0x3e25452e	0.16139671
89	0x3d2a79fd	0.041620243
90	0xbf24e6cc	-0.6441467
91	0xbf383e39	-0.71969944
92	0xbe9849ab	-0.29743704
93	0xbe1b59cb	-0.15170972
94	0xbe635ae0	-0.22202635
95	0x3e2d4fac	0.16924924
96	0x3e79e334	0.24403077
97	0xbc2a3d80	-0.010390639
98	0xbd2b2ad8	-0.041788906
99	0x3dfe9e76	0.12432568
100	0x3b7a4ab5	0.0038191502
101	0x3c518e4a	0.012790272
102	0x3c670105	0.014099364
103	0x3d9bb2ed	0.07602487
104	0x3dacd9bb	0.08439966
105	0x3ea785fb	0.32719406
106	0x3e050d15	0.12993272
107	0x3e6e53c1	0.23274137
108	0xbf8e46d3	-1.1115364
109	0xbef6be7e	-0.4819221
110	0xbf0f817a	-0.5605694
111	0xbe4404ff	-0.19142531
112	0xbca93a8a	-0.020657796
113	0xbcdaa053	-0.026687777
114	0x3d715734	0.058921054
115	0x3d849d25	0.064752854
116	0x3d26b4b0	0.04069966
117	0x3d0a9f27	0.033843186
118	0x3da0cbbb	0.078513585
119	0xbb284d84	-0.0025680969
120	0xbec957ee	-0.39324898
121	0xbd947f88	-0.07250887
122	0xbdd63306	-0.10458951
123	0xbe94d9ce	-0.29072422
124	0xbb0809be	-0.002075776
125	0xbc89e1bd	-0.016831273
126	0x3d413862	0.04717291
127	0xbfa20e46	-1.2660606
128	0x3d429dc6	0.047513746
129	0x3beb2665	0.007176208
130	0xbe2be2de	-0.16785762
131	0xbe386114	-0.18005782
132	0xbd94dc03	-0.072685264
133	0xbd1394ba	-0.03603051
134	0xbd4f8b0e	-0.050669722
135	0x3cc9855a	0.02459972
136	0x3c7eeb78	0.01555907
137	0xbd9a3c9b	-0.07531091
138	0x3c18a5f5	0.009316911
139	0x394a1d9c	0.00019275252
140	0xbc8a2b85	-0.016866455
141	0x3d983a02	0.07432939
142	0xbdbe61a3	-0.092959665
143	0xbc0c1426	-0.008549726
144	0xbd2b5265	-0.041826624
145	0x3b9bc51f	0.0047537233
146	0xbd9a2d31	-0.07528151
147	0x3d6605a3	0.05615772
148	0xb9f4a93a	-0.0004666539
149	0x3b8c0f57	0.0042742896
150	0x3b4a6a87	0.003088625
151	0xbc15a099	-0.009132528
152	0x3d935bba	0.0719523
153	0x3b9670cc	0.004591083
154	0xbd4edf02	-0.050505646
155	0xbd3143c0	-0.043277502
156	0xbd037c68	-0.032101065
157	0xbdfec428	-0.124397576
158	0xbe066e7c	-0.13128084
159	0xbd9b780f	-0.07591259
160	0x3c0684e5	0.008210395
161	0x3c829039	0.015937911
162	0xbc53c7ab	-0.0129260225
163	0xbbeb1300	-0.007173896
164	0x3dee8fe9	0.116485424
165	0xbd5861b8	-0.052827567
166	0xbd5fc780	-0.054633617
167	0x3bc6b6f0	0.0060642883
168	0x3c6f05dd	0.0145888
169	0x3c11fc2d	0.008910221
170	0xbc9dc3e9	-0.019258456
171	0xbc862872	-0.016376708
172	0x3e07039e	0.13184974
173	0xbd77d94a	-0.060509957
174	0xbd94aff5	-0.07260124
175	0x3beece43	0.007287772
176	0xbfbcee86	-1.4760292
177	0x3e8debec	0.27719057
178	0x3fc0dec2	1.506798
179	0xbfce8ad6	-1.6136119
180	0xbb10cce1	-0.0022094774
181	0xbe266d85	-0.16252716
182	0xbda20b42	-0.079123035
183	0xbd1cfecc	-0.03832893
184	0xbdc178c4	-0.09446862
185	0xbec6cc5c	-0.3882779
186	0xbe5ebb56	-0.2175115
187	0xbec85209	-0.39125088
188	0x3f0b864c	0.54501796
189	0x3f3bb301	0.73320013
190	0x3f65c02f	0.89746374
191	0x3e62455c	0.22096771
192	0xbc39aa67	-0.011332131
193	0xbb628db1	-0.0034569318
194	0x3c6db6b2	0.01450889
195	0x3c3ba770	0.011453494
196	0xbdec80fd	-0.1154804
197	0x3d34d08c	0.0441442
198	0x3d409747	0.04701927
199	0xbbfa209a	-0.007633281
200	0xbcad0d50	-0.021124512
201	0x3d00a1e9	0.03140441
202	0x3c6b89ed	0.014376146
203	0x3c646726	0.013940608
204	0x3adb4252	0.0016728139
205	0xbb0297cc	-0.0019926904
206	0xbba079f1	-0.004897349
207	0x3e577eee	0.21044514
208	0x3cf6a681	0.030108692
209	0x3d38b55b	0.04509483
210	0xbc563270	-0.013073549
211	0xbcfd5467	-0.030924035
212	0x3bd17ae0	0.0063928217
213	0xbcb97bd7	-0.02264206
214	0x3d173774	0.03691812
215	0xbe27c836	-0.16384968
216	0x3e32a7dd	0.17446847
217	0xbcb6f4b4	-0.02233348
218	0x3ba2675a	0.004956168
219	0x3d0532cb	0.032519143
220	0x3b6cc648	0.0036128927
221	0x3b8d6fe3	0.0043163165
222	0x3c13f3fa	0.0090303365
223	0x3ca0387f	0.01955819
224	0xbcf217e0	-0.0295524
225	0x3b493b64	0.0030705566
226	0x3da0438f	0.07825386
227	0x3e1049d1	0.14090659
228	0xbe70a61c	-0.23500866
229	0xbe9bdc24	-0.3044139
230	0xbe873dda	-0.26414376
231	0xbd4943ff	-0.04913711
232	0x3cb7d50c	0.022440456
233	0xbc64913f	-0.013950645
234	0xbd2169b7	-0.03940746
235	0xbd422e3c	-0.047407374
236	0xbc39340a	-0.011303911
237	0xbc7c290c	-0.015390646
238	0xbc3a066d	-0.011354071
239	0xbd3e8b55	-0.046519596
240	0x3f8a90c5	1.082543
241	0xbe7096e6	-0.23495063
242	0x3f562a8c	0.8365867
243	0xbf401f94	-0.75048184
244	0x37334f40	1.0687683e-05
245	0xbd454da6	-0.048169754
246	0x3ce592c3	0.028024083
247	0xbf4ed77d	-0.8079756
248	0xbb5055f4	-0.0031789513
249	0x3dad2297	0.08453863
250	0xbc95c400	-0.018281937
251	0x3aaa2bb4	0.0012982995
252	0x3b3880c2	0.0028152918
253	0xbe40645f	-0.18788289
254	0x3e4b480a	0.198517
255	0x3cd6b956	0.026211422

arith.constant7 f4 [8, 1, 1, 48]
0	0xbef4c7ce	-0.4780869
1	0x3d311f10	0.043242514
2	0x3fc39613	1.5280174
3	0xbe342a44	-0.17594248
4	0x3efddb98	0.495816
5	0xbe896948	-0.26838136
6	0xbe5bb6fa	-0.21456519
7	0x40969be7	4.706531
8	0x3db33444	0.08750203
9	0xbd8e16ed	-0.069379665
10	0x3fb2cf09	1.3969432
11	0xbe3172a0	-0.17328882
12	0xbe8eb69f	-0.27873704
13	0xbe64858b	-0.22316568
14	0xbc238673	-0.009980786
15	0x4082fbfd	4.0932603
16	0xbdb9521d	-0.09048865
17	0xbdca38c9	-0.09874112
18	0x3f0ad346	0.5422863
19	0xbdd69da8	-0.10479289
20	0x3d9d4ade	0.076802954
21	0xbdffbe07	-0.12487417
22	0xc0268d2d	-2.6023667
23	0x3de67e83	0.11254599
24	0x3bfdd919	0.0077468273
25	0x3ecfe8db	0.40607342
26	0x3ca7d4f3	0.020487284
27	0xc0865e9a	-4.199048
28	0x3e019476	0.1265429
29	0xbe1e9709	-0.15487303
30	0xbfc3883c	-1.527595
31	0xbc95a3fd	-0.018266672
32	0xbde71733	-0.11283722
33	0xbe05a40d	-0.13050862
34	0xbd541aa9	-0.051783238
35	0xbcc52868	-0.024067119
36	0xbd461813	-0.048362803
37	0x3cc6e16a	0.024277408
38	0x3d4a80a0	0.049439073
39	0xbfe78c37	-1.8089665
40	0x3e645fe5	0.22302206
41	0x3cce9b4e	0.02522054
42	0xbe2e691b	-0.17032282
43	0xbcd68cb1	-0.026190134
44	0xbc9ef209	-0.01940252
45	0x3d81dcad	0.06340919
46	0x3db44e18	0.08803958
47	0x3faf1c6c	1.3680549
48	0x3f656515	0.89607364
49	0x3f3cb0aa	0.7370707
50	0x3dac2ca9	0.08406956
51	0xc090e384	-4.527773
52	0x3f76aa8a	0.9635397
53	0xbea1b730	-0.31585073
54	0x3f6eecc2	0.93330014
55	0xbd8ea285	-0.06964592
56	0x3ff5f74f	1.9216098
57	0x3e658061	0.22412254
58	0x3f1a7a0a	0.60342467
59	0xbf2c6ddc	-0.6735513
60	0xbf816ec2	-1.0111926
61	0x3fa28e3c	1.2699656
62	0x3eaa2a90	0.33235598
63	0xbdbe2493	-0.0928432
64	0x3f8c2411	1.0948507
65	0x3f9bfd25	1.2186629
66	0xbf8eeda2	-1.116627
67	0xbf72f8b0	-0.94910717
68	0x3f2a7930	0.6659117
69	0xc0880358	-4.250408
70	0xbeaf3814	-0.34222472
71	0x3fa7766f	1.3083018
72	0x3f4a7291	0.79081064
73	0xbed039c8	-0.40669084
74	0xbf4ec28f	-0.8076562
75	0xbde600e7	-0.11230641
76	0x3ec34d7f	0.38145062
77	0xbfa348a7	-1.2756547
78	0x3f3d0745	0.7383922
79	0x3e731868	0.23739779
80	0xbf880c2d	-1.0628716
81	0x3fc847f0	1.5646954
82	0x3eed17dc	0.46307266
83	0x3fad8fe2	1.3559535
84	0xc01fb2e7	-2.4952943
85	0x3fb92374	1.4463944
86	0xbf49d043	-0.7883341
87	0xbea66f09	-0.32506588
88	0xbc9c48e1	-0.01907772
89	0x3e9bfbe2	0.3046561
90	0x3f01dabe	0.507244
91	0x3d7e50c5	0.062088747
92	0x3f734e2e	0.9504117
93	0x3e851fa9	0.26000717
94	0x40161581	2.3450625
95	0x3e456fa8	0.19280875
96	0x3eca2698	0.3948257
97	0x4010b30b	2.260928
98	0x3f542b5d	0.8287867
99	0x404f6fbb	3.2411945
100	0x4007cd88	2.1219196
101	0xbc072c9a	-0.00825038
102	0x3df5a479	0.11994261
103	0xbeb5eeef	-0.35533854
104	0x3fc64883	1.5490879
105	0xbfd8acc8	-1.6927729
106	0xbeeddf2b	-0.46459326
107	0x3ec0149a	0.37515718
108	0x3f93dfb6	1.1552646
109	0xbeb2f319	-0.34951094
110	0xbf989c6c	-1.1922736
111	0x3e102a48	0.14078629
112	0xbfad6505	-1.3546454
113	0x401126ce	2.2679935
114	0xc002f8d0	-2.0464363
115	0x3fcbbada	1.5916398
116	0x404cfa8b	3.202792
117	0xbf9ac381	-1.2090913
118	0xbeff8f63	-0.49914083
119	0x3c78c00d	0.015182507
120	0x406c7188	3.6944294
121	0x3eaf77d2	0.34271103
122	0xbfe5a2b1	-1.7940274
123	0xbf06da6b	-0.5267703
124	0x40107a55	2.2574666
125	0x400b268f	2.1742284
126	0x3fea14ce	1.8287599
127	0xbf260245	-0.64847213
128	0x3fd7e674	1.6867204
129	0x3f71258d	0.9419792
130	0xbd5255a1	-0.051351193
131	0xb8a5e843	-7.911075e-05
132	0x3ea5867b	0.32329163
133	0x40623608	3.5345478
134	0xbfdee8b5	-1.7414767
135	0xbee1bfb7	-0.4409158
136	0x3e8ffd34	0.28122866
137	0x401167a7	2.2719514
138	0xbf12c3f0	-0.57330227
139	0x3fbaaf64	1.4584775
140	0x3ffc7cbf	1.972557
141	0x3fa553a3	1.2916149
142	0xbf95d76c	-1.1706367
143	0x3f180d9f	0.59395784
144	0x3ec115ca	0.37711936
145	0x3f9fd4c8	1.2486811
146	0xbf46d8c7	-0.77674526
147	0x3f2367c9	0.6383024
148	0xc02c4491	-2.691685
149	0xbe568965	-0.2095085
150	0x3eaad23b	0.33363518
151	0x3e20ec5d	0.15715165
152	0x3f5061af	0.81399053
153	0x3f3967d1	0.72424036
154	0x3cd42116	0.025894683
155	0x3ea30bb4	0.31844866
156	0x3dc1191a	0.09428616
157	0x3ea8d923	0.32978162
158	0xbee2e975	-0.4431874
159	0xbbf5dcfd	-0.0075031505
160	0xbf295b79	-0.661552
161	0x3fba1d18	1.4540129
162	0x40409738	3.0092297
163	0x3ecd7064	0.4012481
164	0x3fa8e62d	1.3195244
165	0xbf790be9	-0.972838
166	0x3f3092e0	0.68974113
167	0xbe043ecc	-0.1291458
168	0x3fc3afb1	1.5287992
169	0x3f194c2b	0.5988185
170	0xbf679db6	-0.9047502
171	0x3e7d8086	0.24756059
172	0x3f6478f9	0.8924709
173	0x3f1c826d	0.61136514
174	0xc01685f1	-2.3519251
175	0x3f9eb093	1.2397636
176	0x3f263e95	0.6493924
177	0x4034c1db	2.824332
178	0x3fa0a9e1	1.2551843
179	0x3fad5527	1.3541611
180	0xbee95ff1	-0.4558101
181	0x3fe45aa1	1.7840158
182	0xbf7674a1	-0.9627171
183	0x3f8db55a	1.1070969
184	0xbf35b1d4	-0.7097447
185	0x3f69b85b	0.9129693
186	0xbe69f2f0	-0.2284658
187	0x3f539919	0.82655483
188	0x3fa4cc9e	1.2874944
189	0x3f04be21	0.51852614
190	0xbe970423	-0.29495344
191	0xbf047675	-0.5174325
192	0x3f5c172e	0.8597287
193	0xbc9c20e6	-0.019058656
194	0x3e9ab0a6	0.30212897
195	0x3eee8d2e	0.46592087
196	0x3f31f4e5	0.69514304
197	0x3fc31fbd	1.5244061
198	0x3ee93da6	0.45554847
199	0x3facda25	1.3504072
200	0x3d5133e4	0.051074877
201	0x3d8f4a26	0.069965646
202	0xc033b760	-2.8080673
203	0x3f92d533	1.1471313
204	0x3df204fb	0.11817356
205	0x3f0d2f0a	0.551499
206	0xbf331dd3	-0.69967383
207	0xbf953654	-1.1657205
208	0xbef07c23	-0.4696971
209	0x3b6e48e9	0.0036359376
210	0xbee45eda	-0.44603616
211	0x3d32945c	0.043598518
212	0x3e5a7189	0.21332373
213	0x3df2852c	0.11841807
214	0xbe973ba0	-0.29537678
215	0xbe9224aa	-0.28543597
216	0xbd286a02	-0.041116722
217	0xbf873b5f	-1.0564994
218	0xbe9a1051	-0.30090573
219	0xbf9ee3bd	-1.241325
220	0x3e060d9a	0.13091126
221	0x3dc25eac	0.094907135
222	0x3b07cfb4	0.0020723166
223	0xbbd14aba	-0.006387082
224	0x3ee1833a	0.4404543
225	0xbc4f62ce	-0.012657834
226	0x3e242463	0.16029505
227	0xbf645ad3	-0.89201087
228	0xbebeeb3e	-0.3728885
229	0xbe82fca2	-0.2558337
230	0xbea085db	-0.31352124
231	0x40c46044	6.136751
232	0xbf62b018	-0.8854995
233	0x3e3684f9	0.17824163
234	0xbf969513	-1.1764244
235	0x3f3a6040	0.72803116
236	0x3e08eee9	0.13372387
237	0x3d80a8e8	0.06282216
238	0xbf113a1a	-0.5672928
239	0x404799c6	3.1187606
240	0xbf0a2a62	-0.5397092
241	0xbf4c41b5	-0.7978776
242	0x3f6be238	0.9214206
243	0x3e843bfe	0.2582702
244	0x3fc258a2	1.5183299
245	0xbf3f37d8	-0.74694586
246	0xbf4ffdb7	-0.81246513
247	0xbe4ae83e	-0.19815156
248	0xbf74ef4d	-0.95677644
249	0x4061005d	3.5156472
250	0xbdb61f31	-0.08892668
251	0x3f0a5d1a	0.5404831
252	0xbe3798d3	-0.17929392
253	0x3e125eac	0.14293927
254	0xbf49de06	-0.78854406
255	0xbe661d81	-0.22472192

arith.constant8 f4 [48, 1, 1, 8]
0	0xbbf5fc18	-0.0075068586
1	0x3dd60f06	0.10452084
2	0xbc947694	-0.018122949
3	0x3dc77c7e	0.09740542
4	0xbcb0f7b1	-0.021602483
5	0x3e0444e7	0.12916909
6	0xbc29af86	-0.010356789
7	0x3cf2405b	0.029571703
8	0x3d0e3735	0.03472062
9	0x3e2527f1	0.16128518
10	0x3d8cf64f	0.06882917
11	0xbd14f768	-0.036368757
12	0xbdf8e2d2	-0.121526375
13	0xbe8a95e9	-0.27067497
14	0x3e0101e2	0.12598374
15	0x3d693e6f	0.056944307
16	0x3b24d44f	0.002515096
17	0x3b672312	0.0035268706
18	0xba93fd58	-0.0011290712
19	0x3ad61ced	0.0016335525
20	0xbc9f2329	-0.019425945
21	0xba84fa17	-0.0010145333
22	0x3c27cec2	0.010242166
23	0x3d14e868	0.036354452
24	0x3bc87c09	0.006118302
25	0x3d0070a9	0.03135744
26	0x3ba0ded4	0.0049093757
27	0xbbfbe18e	-0.0076868003
28	0xbd76b327	-0.060229447
29	0xbd5fd5df	-0.054647323
30	0x3dbb82de	0.0915582
31	0x3e19ea64	0.15030819
32	0xbd2947aa	-0.04132811
33	0x3d8a0d44	0.067408115
34	0xbd518d2c	-0.051160023
35	0x3b03c004	0.0020103464
36	0x3d20dd31	0.039273445
37	0xbd35a190	-0.04434353
38	0xbee1bdd4	-0.4409014
39	0x3e7c4995	0.24637444
40	0xbabe2f86	-0.0014510013
41	0x3d235055	0.039871532
42	0x3cfa5acd	0.030560875
43	0x3d8c96af	0.06864678
44	0xbc241757	-0.01001533
45	0x3d772187	0.06033471
46	0xbabbc099	-0.0014324366
47	0x3ce3e963	0.027821248
48	0xbe0cdd51	-0.137563
49	0x395a285f	0.0002080514
50	0xbb9c9b88	-0.004779283
51	0x3c18bf0d	0.009322894
52	0x3d6b4622	0.05743993
53	0xbc8c2afa	-0.017110337
54	0xbb14b445	-0.0022690457
55	0xbbb507f3	-0.0055246293
56	0x3bf41bfb	0.0074496246
57	0xbd3dafe5	-0.046310324
58	0x3d406c30	0.046978176
59	0x3c848b2e	0.016179647
60	0xbc8300a3	-0.015991515
61	0x3d744b70	0.059642255
62	0x3aa2b7fc	0.0012414451
63	0xbdec0d67	-0.11525994
64	0xbb39fb08	-0.0028378386
65	0x3d8071c5	0.062717
66	0x3aaadaaa	0.0013035138
67	0x3d48398e	0.048883013
68	0xbbc68b0e	-0.006059057
69	0x3d47ad37	0.048749175
70	0x3bcc3df7	0.0062329727
71	0x3cec8daf	0.028876154
72	0x3b580017	0.0032959038
73	0xbdd46d14	-0.103723675
74	0xbdbcd2e2	-0.0921991
75	0xbe80e24e	-0.25172657
76	0x3d13131a	0.03590689
77	0xbe894cac	-0.26816308
78	0x3c0c17ad	0.008550567
79	0xbdb04ec2	-0.08608772
80	0x3a7bcbed	0.00096052774
81	0xbe5c54f1	-0.21516778
82	0xbee251d8	-0.44203067
83	0xbe8a7947	-0.27045652
84	0x3c8dbaaa	0.017300922
85	0x3e8b36b1	0.27190164
86	0xbc892926	-0.016743254
87	0x3d2bbd12	0.04192836
88	0xbb59d266	-0.003323698
89	0x3e455d8f	0.19273971
90	0x3e8e7175	0.27820936
91	0x3dab8f0b	0.08376893
92	0x3c99a547	0.018755568
93	0xbe9fa816	-0.31182927
94	0xbcbe940b	-0.023263952
95	0xbd8c312d	-0.06845317
96	0x3c9c3cfc	0.019072048
97	0xbe32cbb2	-0.17460516
98	0xbd09acf9	-0.033612225
99	0xbdfa7bb2	-0.12230624
100	0xbddcf68e	-0.10789214
101	0xbc1daa73	-0.009623158
102	0xbe15fc4a	-0.14647022
103	0xbe96de3a	-0.2946642
104	0x3d886e6e	0.06661688
105	0x3db0c30b	0.086309515
106	0xbc74eab9	-0.01494854
107	0xbd3d0185	-0.046144027
108	0xbd8d8f87	-0.06912141
109	0x3ca654f2	0.020304177
110	0x3f0a3805	0.5399173
111	0xbef90820	-0.4863901
112	0x3d58017f	0.0527358
113	0x3e3f240d	0.18666096
114	0xbd797de3	-0.06091107
115	0xbbdafda0	-0.0066830665
116	0xbd56d037	-0.052444663
117	0x3c15a6a1	0.009133966
118	0x3e8f12f7	0.27944157
119	0xbe4328d5	-0.19058545
120	0x3d12147b	0.035664063
121	0xbd99c4a5	-0.0750821
122	0x3dc6dbb2	0.09709872
123	0x3d2183c2	0.039432295
124	0xbe20de81	-0.15709879
125	0x3c818870	0.015812129
126	0x3d3b5219	0.04573259
127	0xbd96a8cf	-0.073564164
128	0x3d33860c	0.04382901
129	0x3c9a61a7	0.018845392
130	0xbcea4801	-0.028598787
131	0xbbff4391	-0.007790037
132	0x3d933353	0.07187524
133	0xbc252f9c	-0.010082152
134	0xbcf7fe46	-0.030272614
135	0x3c9d69ae	0.019215431
136	0x3c3c680e	0.011499418
137	0xbdc567e3	-0.096389554
138	0x3d62ad4c	0.05534105
139	0x3c7eb7f0	0.015546784
140	0xbbda8d1c	-0.0066696536
141	0x3bafca5d	0.0053646998
142	0x3ba58a6d	0.005051902
143	0x3cd3395d	0.025784189
144	0x3b7e0c10	0.0038764514
145	0xbbd84bb9	-0.0066008237
146	0x3bc2d15a	0.005945367
147	0x3b03c0f3	0.002010402
148	0xbcc86c99	-0.024465846
149	0xbb8eb20d	-0.0043547214
150	0x3d113fad	0.035461117
151	0x3c1c42a2	0.009537371
152	0xbbaaa2fd	-0.005207418
153	0x3d53c485	0.051701088
154	0x3cc574a5	0.024103472
155	0x3d9a996d	0.07548795
156	0xbc8b4c98	-0.017004296
157	0x3d838e87	0.06423669
158	0x39f4ade7	0.00046668874
159	0x3d06965e	0.032858245
160	0xbbc1bec9	-0.005912636
161	0x3ca6071e	0.020267066
162	0x3b97574e	0.004618562
163	0xbaa325ef	-0.0012447218
164	0x3cfa70f9	0.030571448
165	0xbcb088b6	-0.021549564
166	0xbd26223a	-0.040559985
167	0xbc803fcb	-0.015655419
168	0x3c628c36	0.013827374
169	0xbc2cd6b5	-0.010549237
170	0x3c8d939f	0.017282305
171	0x3afa7606	0.001910866
172	0xbcd00157	-0.025391264
173	0x3c942517	0.018084092
174	0x3dd730a4	0.10507324
175	0xbd20109e	-0.039078347
176	0x3b40c0a3	0.0029411695
177	0x3d1e5749	0.03865746
178	0xbdc5e419	-0.09662647
179	0xbdab9b1e	-0.08379196
180	0x3d90aa87	0.070637755
181	0xbd268b74	-0.040660337
182	0x3e52ea74	0.2059725
183	0xbd90280e	-0.0703889
184	0x3c08d5e3	0.008351776
185	0x3e877115	0.26453462
186	0xbe61c5f0	-0.22048163
187	0xbd17e5df	-0.037084457
188	0xbbdab053	-0.0066738515
189	0x3d90b3d2	0.07065548
190	0xbc04ffa6	-0.008117592
191	0xbd09a037	-0.03360006
192	0x3e06fb54	0.13181812
193	0xbd02a030	-0.031891048
194	0x3bb1cf72	0.0054263407
195	0xbc0919c5	-0.00836796
196	0x3d00edcb	0.031476777
197	0x3b9c0979	0.0047618714
198	0xbc824ccc	-0.01590576
199	0x3cdce52a	0.026964743
200	0xb9b49879	-0.00034445876
201	0xbe4e9a6f	-0.20176099
202	0xbcbd0ff3	-0.023078894
203	0xbdd66894	-0.104691654
204	0x3ca9cf1e	0.020728644
205	0xbd45f4fd	-0.048329342
206	0x3cac5623	0.021037167
207	0x3aff69f7	0.0019486536
208	0x3d20199e	0.03908693
209	0xbca222d0	-0.01979199
210	0x3c0f9488	0.00876344
211	0xbd0c3d13	-0.034237932
212	0xbe5a5682	-0.21322063
213	0x3cda9898	0.02668409
214	0x3dabbbdc	0.08385441
215	0xbd93fd23	-0.07226016
216	0xbb97d91b	-0.0046340353
217	0xbca0d782	-0.019634012
218	0x3c0a4d08	0.008441217
219	0x3b5aa2a8	0.003336111
220	0xbd59d1c8	-0.05317858
221	0x3cadef14	0.021232165
222	0xbe316b43	-0.17326073
223	0x3d272a01	0.040811542
224	0xbc014209	-0.007889279
225	0xbc9bb684	-0.019007929
226	0x3c516f51	0.012782888
227	0x3c1eb7fe	0.009687422
228	0x3de7f867	0.11326676
229	0x3b11fc0c	0.0022275476
230	0xbde658f0	-0.11247432
231	0x3d8abede	0.06774686
232	0x3caa6fd7	0.020805283
233	0x3beec166	0.0072862385
234	0x3cc46102	0.023972038
235	0xbaa04297	-0.0012226877
236	0xbded17a4	-0.11576775
237	0xbbba5566	-0.00568645
238	0xbd35dba6	-0.044398926
239	0x3bd3b93b	0.00646129
240	0xbe2c2aa0	-0.16813135
241	0x3c585c50	0.013205603
242	0xbd3a40ce	-0.04547196
243	0x3c7854a7	0.015156901
244	0x3ce0f6e0	0.02746147
245	0xbc911ff6	-0.017715435
246	0xbcbf563a	-0.023356546
247	0x3c1cce57	0.00957068
248	0x3d2c69d8	0.042093128
249	0xbdab5342	-0.083654895
250	0xbd4de4f7	-0.050267186
251	0xbe2194a7	-0.15779363
252	0xbde843dd	-0.11341069
253	0xbd6db833	-0.058036994
254	0xbdd207b3	-0.10255375
255	0xbdc9843a	-0.09839673

arith.constant9 f4 [8, 1, 1, 48]
0	0x3e26b0bd	0.16278358
1	0xbdf49a51	-0.11943496
2	0x3e7d2a8e	0.24723265
3	0xbdcd536f	-0.10025679
4	0xbe0d34ed	-0.13789721
5	0x3e1ca7e4	0.1529842
6	0xbe0c6b88	-0.13712895
7	0xbd399855	-0.04531129
8	0x3d11ee65	0.03562774
9	0x3ea8029c	0.3281449
10	0xbde7445e	-0.11292337
11	0xbdb4c913	-0.08827414
12	0xbdc93286	-0.0982409
13	0x3ec23cb8	0.3793695
14	0xbef9a3d8	-0.48757815
15	0xbef5722b	-0.47938666
16	0xbea13b8c	-0.31490743
17	0xbc9b957e	-0.018992182
18	0x3f6cb275	0.92459804
19	0xbdf24b81	-0.118308075
20	0xbe135ce4	-0.14390904
21	0x3eabca47	0.33552763
22	0xbea54156	-0.3227641
23	0xbd5df4e1	-0.054188613
24	0x3d9d1eb2	0.0767187
25	0x3e42ae63	0.19011836
26	0x3e97d459	0.29654196
27	0xbf3edce5	-0.7455581
28	0xbded8d91	-0.11599267
29	0x3f213e69	0.62985855
30	0x3ee07274	0.4383732
31	0xbede763f	-0.4344959
32	0x3d3aa9be	0.045572035
33	0xbc58855f	-0.013215392
34	0x3f25d09b	0.6477143
35	0x3ec6aabd	0.38802138
36	0x3d11d140	0.035599947
37	0xbece157a	-0.4025076
38	0xc08f0238	-4.469021
39	0x3f23bab9	0.6395679
40	0x3d209ec5	0.039213914
41	0xbd45ddfb	-0.0483074
42	0xbd452811	-0.048133913
43	0xbe4e0672	-0.20119646
44	0x3fa881d7	1.3164624
45	0x3dbc67ed	0.0919951
46	0x3f19bfc9	0.60058266
47	0xbf19dc69	-0.60101944
48	0xbfa686ea	-1.3009923
49	0xbe8089f3	-0.25105247
50	0xbeab39ff	-0.33442685
51	0x3de8d9f8	0.11369699
52	0x3ffd9d83	1.9813694
53	0xc0178ab2	-2.3678403
54	0x3f67beb7	0.9052538
55	0xbd2050df	-0.039139625
56	0xc01c7d78	-2.445158
57	0xbf70c3a0	-0.940485
58	0x3e62ec38	0.22160423
59	0xbf65d253	-0.89774054
60	0x3f1c135d	0.60967046
61	0xbf908a8a	-1.1292279
62	0x3f24709a	0.64234316
63	0xbea475b4	-0.3212105
64	0xbeca5120	-0.39515018
65	0x4024b616	2.5736136
66	0xbeb204ca	-0.3476928
67	0x3f1f3c63	0.6220152
68	0x3faf6a25	1.3704268
69	0x3e387a27	0.18015347
70	0xbe2474db	-0.16060202
71	0xc00e32ea	-2.2218575
72	0xbe870e31	-0.26378015
73	0x3fdd2130	1.7275753
74	0xbefcf3da	-0.49404794
75	0x3e038d26	0.12846813
76	0x3eaaa8ae	0.33331817
77	0xbf3b1124	-0.7307303
78	0xbea82012	-0.32836968
79	0xbf5b0318	-0.85551596
80	0xbd3ebd21	-0.046567086
81	0xbf399e23	-0.7250692
82	0xbee688a4	-0.45026124
83	0x4029a018	2.6503963
84	0xc01f24d9	-2.486624
85	0x3ed73573	0.42032966
86	0xbd210cfa	-0.039319016
87	0x3e51c3b7	0.20484816
88	0xbeb4fae1	-0.35347655
89	0x3f65626a	0.8960329
90	0xbe808330	-0.25100088
91	0x3f849fc1	1.0361253
92	0xbf0fafe4	-0.5612776
93	0xbf2d2958	-0.6764121
94	0xbd692909	-0.0569239
95	0xbcd6b30a	-0.02620842
96	0x3e809d77	0.25120136
97	0xbde9a6e9	-0.11408789
98	0xbf38e723	-0.72227687
99	0xbea72680	-0.3264656
100	0x3c3ff9bc	0.011717256
101	0xbf8aa1d9	-1.0830642
102	0x3f637a7f	0.8885879
103	0x3f888039	1.066413
104	0xbf40327a	-0.7507702
105	0xbe3b86fc	-0.18313211
106	0x401fe95d	2.4986184
107	0xbfe28623	-1.7697185
108	0x3f792d7b	0.9733502
109	0xbeeae247	-0.4587576
110	0x3e5cdad4	0.21567851
111	0x3e0b0999	0.1357788
112	0xbf9e4771	-1.2365552
113	0xbfb20e2a	-1.3910573
114	0x3f248819	0.6427017
115	0x3ffa116d	1.9536568
116	0xc008f17d	-2.1397393
117	0x3f81296c	1.0090766
118	0xbf318c69	-0.69354874
119	0x3fb5315b	1.4155687
120	0x3fb1efa4	1.3901258
121	0xc0036141	-2.052811
122	0x3f6ccee4	0.9250319
123	0x3db6baee	0.08922373
124	0x3e485461	0.19563438
125	0xbee92135	-0.45533147
126	0xbf9a31fb	-1.2046503
127	0xbe40abc0	-0.18815517
128	0xbf60162c	-0.8753383
129	0x4010700c	2.2568388
130	0xc00c0252	-2.1876416
131	0xbea0b6a4	-0.31389344
132	0xbe336c67	-0.17521821
133	0x3f78f905	0.97254974
134	0xbda6a726	-0.0813735
135	0x3db5562d	0.08854327
136	0xbf7f92c7	-0.9983334
137	0xbefce998	-0.49396968
138	0xbfac2c39	-1.3450996
139	0x3f994dda	1.1976883
140	0x3e637886	0.22213945
141	0x3fa62dc9	1.2982723
142	0xbf5fe0ea	-0.87452567
143	0x3f096c1e	0.536806
144	0xbf3fdeb2	-0.7494918
145	0x3e7d2d13	0.24724226
146	0xbec78992	-0.38972145
147	0xbd77df5c	-0.060515746
148	0x3e75b799	0.23995818
149	0xbfffaf61	-1.9975396
150	0x3f5b9e2a	0.85788214
151	0x3ef22850	0.4729638
152	0xbf9971ac	-1.1987815
153	0xbfb68c3e	-1.4261549
154	0x3f8f3618	1.1188383
155	0xbef8ef87	-0.48620245
156	0x3eefa067	0.46802065
157	0xbe12860e	-0.1430895
158	0x3d9928f7	0.074785165
159	0xbcbad1b8	-0.02280508
160	0xbf12083f	-0.5704383
161	0xbcb6450b	-0.02224972
162	0x3eb29ffc	0.34887683
163	0x3f96b57f	1.1774138
164	0xbfaa8d47	-1.3324364
165	0xbc04b1c9	-0.008099028
166	0xbdc73c64	-0.097283155
167	0xbe3c10a3	-0.18365721
168	0x3e2619ee	0.16220829
169	0x3d6e004f	0.058105763
170	0x3ef01691	0.46892217
171	0x3e3b6f2e	0.1830413
172	0xbec2403d	-0.37939635
173	0xbeee0461	-0.46487716
174	0xbf4b0866	-0.7930969
175	0xbdabb53b	-0.08384176
176	0xbf093aaf	-0.5360517
177	0x3f42d841	0.7611123
178	0x405317bb	3.2983234
179	0xbfd2c930	-1.6467648
180	0xbe976c92	-0.2957502
181	0x3c608d32	0.013705539
182	0xbeac1851	-0.33612302
183	0x3dffaf96	0.12484662
184	0xbefc1b45	-0.49239555
185	0x3d7007d3	0.05860121
186	0xbf00c6e0	-0.5030346
187	0x3f7472e7	0.9548783
188	0x3ef8cd39	0.48594072
189	0x3e6a3103	0.22870259
190	0xbc4ed3bb	-0.012623723
191	0x3e546e86	0.20745286
192	0x3e2e7132	0.17035368
193	0x3ce26c57	0.027639551
194	0x3f01d3e5	0.5071395
195	0xbf6bf659	-0.9217277
196	0x3f29a4cb	0.6626708
197	0xbe7259d8	-0.23667085
198	0x3d1f0d18	0.038830847
199	0x3eecb937	0.46235058
200	0xbe979052	-0.29602295
201	0x3e15bd18	0.14622915
202	0x3e2b424a	0.16724506
203	0xbe3d9cd0	-0.1851685
204	0xbec5d419	-0.3863838
205	0x3e00cdda	0.12578526
206	0x3fe8f319	1.8199188
207	0x3f7aaf50	0.97923756
208	0xbf0d4b97	-0.55193466
209	0x3dad777f	0.08470058
210	0xbfab942c	-1.3404593
211	0xbf0079fe	-0.50186145
212	0x3fa5e9b7	1.2961949
213	0xbf93d8ff	-1.1550597
214	0x3ef05007	0.46936056
215	0x3f21a8aa	0.63147986
216	0xbe032493	-0.1280692
217	0xbe6f5c37	-0.23375021
218	0xbf9a6283	-1.2061313
219	0x3f374f94	0.716058
220	0xc01dd631	-2.4661982
221	0xbfa0d64b	-1.2565397
222	0xbe10bd7e	-0.14134786
223	0x3fe4d606	1.7877815
224	0xbebb5554	-0.36588538
225	0xbf06fe61	-0.527319
226	0x3ee08fb8	0.4385965
227	0x3d7b6fb8	0.06138584
228	0xbf1bb23c	-0.6081884
229	0x3e179b14	0.14805251
230	0xbf3e51fa	-0.74343836
231	0xc0024682	-2.0355535
232	0xbed20723	-0.4102107
233	0xbf376f7d	-0.7165449
234	0xbed2bf0e	-0.41161388
235	0xbe18ed53	-0.14934282
236	0xc0307c92	-2.7576032
237	0x3da1e4ac	0.07904944
238	0xbf00fc72	-0.503852
239	0x3ff0723b	1.878486
240	0xbf54838c	-0.83013225
241	0x3f02c35b	0.5107934
242	0x3f34513f	0.7043647
243	0xbefe9fd7	-0.49731323
244	0xbebb471d	-0.36577693
245	0xbfbac427	-1.4591111
246	0x3de26555	0.11054484
247	0x3e9f243d	0.31082335
248	0xbf499dfe	-0.787567
249	0xc00d4126	-2.2071013
250	0xbf50671a	-0.8140732
251	0x400fb396	2.245336
252	0xbf5be96f	-0.85903066
253	0x3f832753	1.0246376
254	0x3f175ab1	0.5912276
255	0x3f161012	0.5861827
